Previous Projects/Homework3_problem1/checkpoints/NN.pth (torch, 292482 bytes, 14 tensors)

fcnn.0.weight f4 [256, 98]
0.102630265 0.9939011 -1.1759952 -0.013109629 -0.048023693 0.19560558 -0.4569161 0.042652577
0.040908482 0.034694478 0.09873309 0.058167078 -0.07206204 -0.0053247213 0.024247622 -0.00010102743
0.0109483125 -0.03185484 -0.03113418 -0.022670697 0.07374335 0.15836088 0.057035524 0.14403918
0.06382722 -0.047783926 0.09955788 -0.07614788 -0.0033325078 0.056776624 -0.04733307 0.11731018
0.08343704 0.009249332 -0.21676084 -0.027324345 -0.07549432 0.081647515 0.09790215 0.14799048
0.0029202006 -0.05239804 -0.001428047 -0.069409855 0.013921952 -0.13075246 0.08646429 -0.06204605
-0.15533182 0.17729847 -0.1211049 0.19050765 0.087283745 -0.038804878 -0.03634956 -0.05773031
0.0036473454 -0.03571643 0.08081219 0.029204784 -0.039750908 0.022443557 -0.10872626 0.19435161
0.024174754 -0.51030755 0.077166714 -0.1396986 0.052337334 0.25505778 -0.066848524 -0.0082343975
0.067775406 0.121836446 0.52779555 -0.49830523 0.08170484 -0.07673776 0.016754596 -0.0042553134
-0.07402337 0.090164 0.26942056 -0.07189183 0.10025158 0.041529305 0.09954203 -0.039209057
0.018899836 0.05471469 0.07642569 0.105848506 0.03437036 0.016600274 -0.09135676 0.03641017
0.046760753 0.03615447 -0.0059787775 -0.55237615 0.52248865 -0.052996896 -0.14733262 0.017838659
-0.14144945 0.0061467737 -0.0020262953 0.049435657 0.10034514 -0.0164452 0.17887276 0.19152811
0.0016480254 0.04105012 -0.06182489 -0.04134003 -0.0569332 0.22454403 -0.050277367 -0.08069081
-0.022015536 0.1225743 0.05112183 0.059503455 -0.0052834153 -0.05780842 0.020887002 0.061919373
0.07205154 -0.11259026 -0.06852137 -0.11948076 -0.11811829 -0.05696625 0.043622706 0.078393646
0.0066567715 -0.1808629 -0.08023079 -0.15574731 0.26348442 0.06223905 0.14898397 -0.1639925
-0.10899143 -0.1175114 0.2021941 -0.02972649 -0.25953174 0.04075786 -0.008377092 -0.030243762
0.15532656 0.113182165 0.020470474 0.09405692 0.1666669 0.05670561 -0.0008085291 -0.11179454
-0.010820305 -0.002657901 -0.07912373 -0.0153224 0.11029414 -0.009314302 -0.058284596 0.0033633236
-0.038456164 0.13501304 0.08442294 0.01376787 0.25356835 0.2098648 0.03043188 -0.021979533
-0.03945357 -0.008734376 0.12514311 0.052784674 0.059941597 0.023010513 0.11212365 0.12700662
0.13027014 0.050904702 0.0048466027 -0.017155178 0.013081983 0.07126546 0.0534193 -0.009825364
-0.005508926 0.26499358 -0.048833907 0.03576826 -0.0644834 -0.096775874 0.850137 -0.1176004
-0.0807941 -0.07909507 0.1108558 -0.030122725 -0.23554812 -0.0055564884 0.06551961 -0.11108774
-0.021309167 0.06415396 -0.10216195 -0.05885341 -0.01934375 -0.05206379 -0.0065918462 -0.08960129
-0.06942529 -0.077094585 0.06006451 -0.052386735 -0.047537874 -0.024264397 0.06191556 0.011302833
0.026788136 0.089876115 -0.028109685 -0.21240094 -0.09858432 -0.06238963 -0.3037301 0.0982854
-0.024680968 0.009344639 0.06383088 0.07138626 0.14959262 -0.05729377 0.04389688 0.055409767
0.13024433 0.020257955 -0.08824511 -0.06940688 0.23303671 0.042081483 -0.107095174 -0.24908662
-0.14885493 -0.21094657 -0.27419677 0.055688076 0.080868565 -0.21729772 -0.08895042 -0.20946267
00000000: d12f d23d 4d70 7e3f 0387 96bf c5c9 56bc
00000010: 7eb4 44bd d44c 483e e8f0 e9be 78b4 2e3d
00000020: a78f 273d cc1b 0e3d 9334 ca3d 9a40 6e3d
00000030: 4395 93bd 007b aebb f3a2 c63c b0de d3b8
00000040: 8d60 333c 397a 02bd 1c0d ffbc e6b7 b9bc
00000050: c106 973d 5b29 223e 159e 693d 027f 133e
00000060: d8b7 823d 14b9 43bd 00e5 cb3d 6bf3 9bbd
00000070: 3466 5abb 9b8e 683d 52e0 41bd 5240 f03d
00000080: 0ae1 aa3d 838a 173c 8ef6 5dbe 4ed7 dfbc
00000090: c49c 9abd d036 a73d ec80 c83d d18a 173e
000000a0: d660 3f3b 549f 56bd 4e2d bbba c126 8ebd
000000b0: e618 643c f9e3 05be 3114 b13d 0024 7ebd
000000c0: 4e0f 1fbe bb8d 353e d905 f8bd 7014 433e
000000d0: d2c1 b23d ddf1 1ebd 47e3 14bd 9e76 6cbd
000000e0: 4d08 6f3b 644b 12bd dd80 a53d df3e ef3c
000000f0: d9d1 22bd 8ddb b73c e0ab debd 1c04 473e
00000100: 220a c63c 84a3 02bf 9509 9e3d 260d 0fbe
00000110: ac5f 563d ef96 823e e1e7 88bd 91e9 06bc
00000120: d5cd 8a3d 6385 f93d 9c1d 073f dd21 ffbe
00000130: de54 a73d b028 9dbd ef40 893c 2870 8bbb
00000140: 9199 97bd e7a7 b83d 7ef1 893e 063c 93bd
00000150: b350 cd3d a21a 2a3d b1dc cb3d ad99 20bd
00000160: d4d3 9a3c 831c 603d 1285 9c3d 1ac7 d83d
00000170: efc7 0c3d 4cfd 873c 4119 bbbd d522 153d
00000180: 3488 3f3d b616 143d 9fe9 c3bb 8668 0dbf
00000190: d1c1 053f 4613 59bd 5dde 16be 6122 923c
000001a0: 20d8 10be e06a c93b 98cb 04bb 0b7d 4a3d
000001b0: c181 cd3d 16b8 86bc 6c2a 373e f21f 443e
000001c0: 8e02 d83a 2c24 283d 193c 7dbd 2a54 29bd
000001d0: ca32 69bd dfee 653e a4ef 4dbd 3941 a5bd
000001e0: ed59 b4bc 3c08 fb3d 2065 513d e5b9 733d
000001f0: 8020 adbb 86c8 6cbd 381b ab3c 2b9f 7d3d
00000200: c28f 933d b995 e6bd ef54 8cbd 54b2 f4bd
00000210: 01e8 f1bd 7155 69bd b9ad 323d d98c a03d
00000220: 0c21 da3b 2034 39be 0a50 a4bd 397c 1fbe
00000230: 6ee7 863e 60ee 7e3d 418f 183e a6ed 27be
00000240: e636 dfbd d1a9 f0bd f80b 4f3e f884 f3bc
00000250: 58e1 84be b7f1 263d 1240 09bc c4c1 f7bc
00000260: ed0d 1f3e 0dcc e73d b2b1 a73c eaa0 c03d
00000270: baaa 2a3e 2444 683d 78f3 53ba 89f4 e4bd
00000280: a647 31bc 2e30 2ebb 9f0b a2bd ce0a 7bbc
00000290: e5e1 e13d 049b 18bc d4bb 6ebd 356b 5c3b
000002a0: 3684 1dbd dc40 0a3e efe5 ac3d a292 613c
000002b0: b6d3 813e cce6 563e 474c f93c 6c0e b4bc
000002c0: 119a 21bd a11a 0fbc 8425 003e be34 583d
000002d0: 5285 753d 8b80 bc3c 16a1 e53d 060e 023e
000002e0: 8965 053e 7381 503d 40d0 9e3b 0489 8cbc
000002f0: d055 563c a0f3 913d 32ce 5a3d 90fa 20bc
00000300: 3984 b4bb 3dad 873e 1006 48bd bd81 123d
00000310: df0f 84bd 6e32 c6bd 94a2 593f 7ad8 f0bd
00000320: 6177 a5bd 99fc a1bd 5e08 e33d efc3 f6bc
00000330: 8733 71be 3413 b6bb 252f 863d f881 e3bd
00000340: 9090 aebc 2763 833d 493a d1bd 4610 71bd
00000350: c976 9ebc d740 55bd 6a00 d8bb e280 b7bd
00000360: d92e 8ebd c4e3 9dbd 3406 763d 7993 56bd
00000370: 13b7 42bd 21c6 c6bc 2c9b 7d3d 852f 393c
00000380: cb72 db3c f810 b83d 4846 e6bc a27f 59be
00000390: 93e6 c9bd 458c 7fbd 8382 9bbe db49 c93d
000003a0: be2f cabc 421a 193c c4b9 823d f632 923d
000003b0: cf2e 193e dfac 6abd 37cd 333d 5af5 623d
000003c0: c55e 053e 03f4 a53c dab9 b4bd 3225 8ebd
000003d0: 2da1 6e3e a25d 2c3d b754 dbbd 9010 7fbe
000003e0: 6d6d 18be 6102 58be 8563 8cbe 2e19 643d
000003f0: 6b9e a53d 4b83 5ebe a32b b6bd 627d 56be

fcnn.0.bias f4 [256]
0.06487622 0.0035542583 0.046149913 0.062251166 -0.020402173 -0.07342871 -0.005049996 0.041495066
-0.09199696 -0.055946615 0.05003301 -0.06909953 0.090780094 -0.06500289 0.08123562 -0.07769189
0.008523138 -0.002822109 0.03919992 0.014289867 0.08792696 -0.021900041 0.0904665 -0.02618893
-0.08194694 0.07440813 0.020782592 0.02599068 0.031200303 0.061179012 0.050913934 0.034292046
0.014779112 0.0074359905 0.05477309 0.09222522 -0.02765477 -0.09019662 0.023880124 0.052649163
-0.07074673 -0.066511616 -0.08002277 -0.005047184 -0.05836272 0.031383544 0.04935129 -0.046838913
-0.06303311 -0.09454042 -0.066141404 0.019667096 -0.004167227 -0.03793718 -0.0038963223 -0.03789667
-0.100141905 -0.07822365 -0.026090706 -0.091331966 0.058181934 -0.048803907 -0.067611136 -0.007070681
-0.08529225 0.07304048 0.06240086 0.021270066 -0.07596457 0.054066043 -0.080433264 0.08078923
-0.022563085 -0.006143972 -0.08996891 0.033034265 -0.025253033 -0.017910898 -0.032207094 -0.03764179
0.012994287 0.025141543 0.07157467 -0.015438943 0.05951475 -0.09832242 0.023177983 0.003872855
-0.026562147 0.036916643 -0.0031224054 -0.010308782 0.09463199 -0.089984015 -0.062234383 -0.03941693
0.08800001 -0.03265007 0.015183139 -0.020484796 0.066549644 0.064429335 -0.06895113 0.009007463
-0.09700911 -0.043766893 -0.075211935 -0.030841129 -0.00020023169 -0.035513654 -0.03937951 -0.03242559
0.015099748 -0.08299553 0.08283857 -0.046658553 -0.0020427126 -0.07577905 -0.08958571 -0.06290334
-0.08447019 -0.09928216 0.06861682 0.09749161 -0.060821798 0.089788914 0.012007305 0.09589384
-0.08091271 0.017680962 0.031389587 -0.08867618 0.06304935 -0.024419801 0.0658322 -0.024634797
-0.06119219 0.058228374 0.028424516 0.0668664 0.0035514669 0.053335987 -0.04095009 0.09536433
0.053566054 -0.100291595 -0.049560446 -0.06378331 -0.05019643 -0.000722847 0.09510905 -0.037706878
-0.041651476 0.01817889 0.02442662 -0.018131863 -0.035309322 -0.01709998 0.013296489 -0.06951604
0.09376163 -0.009648695 0.076083824 -0.030131603 0.0051283566 0.014843935 -0.09478372 0.017983004
-0.018191976 0.016803877 0.022294054 0.06292408 -0.03024645 -0.03428863 0.06190474 0.03915915
0.026852848 -0.0654396 -0.050541412 -0.07675737 0.04437964 -0.04917756 0.062255878 -0.07726003
-0.091909006 -0.051932648 0.0726939 0.051094696 -0.070654325 0.022562832 -0.08346819 -0.07493499
-0.046177886 0.05330354 0.013147527 -0.022683479 0.0317488 0.019777164 0.05664687 0.040817264
-0.0040909913 0.0025563445 -0.030162552 0.08231532 0.066185 -0.09468949 -0.030066544 -0.0050615547
0.042467475 -0.028908817 0.09097857 -0.0059666894 0.08945358 -0.07140814 0.06711353 0.028674616
0.0700265 0.03346412 -0.09532386 0.029661754 -0.049290847 -0.034430906 -0.08292106 0.02539612
-0.024355922 -0.014196723 -0.07691691 0.08265542 0.07680857 -0.040072296 0.0020307747 -0.08138212
-0.031415503 0.071225494 0.065820456 0.03137661 -0.0621831 0.04763622 -0.030679671 -0.009789233
0.017219126 -0.09013472 -0.00441074 -0.046637904 -0.049543027 0.022092784 -0.02880594 0.031368446
0.034680653 -0.09533385 0.004257573 0.08811147 -0.06306695 0.051057696 -0.0912768 0.035851076
00000000: d3dd 843d 8fee 683b b107 3d3d 14fb 7e3d
00000010: 7522 a7bc cb61 96bd 707a a5bb bbf6 293d
00000020: e768 bcbd 4728 65bd 6aef 4c3d 0e84 8dbd
00000030: eaea b93d 3c20 85bd dc5e a63d ed1c 9fbd
00000040: a2a4 0b3c 22f3 38bb 1890 203d 0c20 6a3c
00000050: 0d13 b43d b767 b3bc 8046 b93d 2b8a d6bc
00000060: ccd3 a7bd 4a63 983d 4140 aa3c 68ea d43c
00000070: c797 ff3c d896 7a3d 218b 503d d175 0c3d
00000080: 1724 723c 9ca9 f33b bf59 603d 93e0 bc3d
00000090: 428c e2bc 01b9 b8bd 40a0 c33c a6a6 573d
000000a0: a9e3 90bd 3e37 88bd fae2 a3bd d962 a5bb
000000b0: bf0d 6fbd 088c 003d 9424 4a3d 29da 3fbd
000000c0: 8117 81bd 689e c1bd 2575 87bd e41c a13c
000000d0: 3c8d 88bb 0464 1bbd 7159 7fbb 8a39 1bbd
000000e0: 3317 cdbd b933 a0bd 2dbc d5bc 410c bbbd
000000f0: 2e50 6e3d 9be6 47bd b577 8abd 2cb1 e7bb
00000100: b4ad aebd 3f96 953d 0b98 7f3d 903e ae3c
00000110: 5093 9bbd 5b74 5d3d 32ba a4bd d374 a53d
00000120: 38d6 b8bc 5f53 c9bb 9f41 b8bd f04e 073d
00000130: 73df cebc e0b9 92bc 96eb 03bd 472e 1abd
00000140: fde5 543c a3f5 cd3c be95 923d 9ff3 7cbc
00000150: bdc5 733d 445d c9bd c1df bd3c bacf 7d3b
00000160: dc98 d9bc e835 173d 45a1 4cbb 2ae6 28bc
00000170: 6bce c13d 8a49 b8bd 7be9 7ebd a673 21bd
00000180: 5939 b43d 14bc 05bd b3c2 783c bbcf a7bc
00000190: 2e4b 883d 87f3 833d 4036 8dbd 0a94 133c
000001a0: b6ac c6bd ea44 33bd b708 9abd 89a6 fcbc
000001b0: 49f5 51b9 c476 11bd 694c 21bd b2d0 04bd
000001c0: ef64 773c 8ff9 a9bd 45a7 a93d 0a1d 3fbd
000001d0: 08df 05bb 0c32 9bbd b678 b7bd 77d3 80bd
000001e0: b5fe acbd 7254 cbbd fa86 8c3d aea9 c73d
000001f0: 4720 79bd 40e3 b73d 4aba 443c fd63 c43d
00000200: 90b5 a5bd aad7 903c 5e92 003d db9b b5bd
00000210: 0520 813d 090c c8bc 08d3 863d eace c9bc
00000220: a9a4 7abd e080 6e3d 88da e83c 40f1 883d
00000230: babf 683b d676 5a3d 48bb 27bd 604e c33d
00000240: 1468 5b3d ae65 cdbd e5ff 4abd d3a0 82bd
00000250: c69a 4dbd 717d 3dba 89c8 c23d 8772 1abd
00000260: bd9a 2abd e5eb 943c 561a c83c 4689 94bc
00000270: 82a0 10bd 4215 8cbc 84d9 593c 6d5e 8ebd
00000280: 1906 c03d 8f15 1ebc d6d1 9b3d 8dd6 f6bc
00000290: c60b a83b fa33 733c f81d c2bd 1851 933c
000002a0: 5707 95bc 49a8 893c 05a2 b63c 57de 803d
000002b0: 67c7 f7bc 3c72 0cbd d38f 7d3d 5865 203d
000002c0: 81fa db3c 3205 86bd 8304 4fbd f832 9dbd
000002d0: 6dc7 353d 696e 49bd 0500 7f3d 823a 9ebd
000002e0: ca3a bcbd 54b7 54bd 8ae0 943d ac48 513d
000002f0: 37b3 90bd b0d5 b83c 5ff1 aabd 8477 99bd
00000300: 0625 3dbd d054 5a3d ba68 573c b4d2 b9bc
00000310: 080b 023d b803 a23c 8c06 683d 0130 273d
00000320: b90d 86bb 5888 273b 7517 f7bc ef94 a83d
00000330: 008c 873d 90ec c1bd 1d4e f6bc 66db a5bb
00000340: 60f2 2d3d 2fd2 ecbc f952 ba3d 3884 c3bb
00000350: 7033 b73d 6e3e 92bd d272 893d 07e7 ea3c
00000360: 0e6a 8f3d ac11 093d 2839 c3bd 35fd f23c
00000370: 33e5 49bd 6c07 0dbd 84d2 a9bd 860b d03c
00000380: 1286 c7bc 5f99 68bc 9d86 9dbd 3f47 a93d
00000390: d04d 9d3d d922 24bd bf16 053b abab a6bd
000003a0: 8bad 00bd acde 913d e0cc 863d c384 003d
000003b0: b5b3 7ebd 321e 433d ef53 fbbc 0563 20bc
000003c0: 200f 8d3c 8d98 b8bd f887 90bb 6307 3fbd
000003d0: a1ed 4abd edfb b43c 6ffa ebbc 337c 003d
000003e0: 4d0d 0e3d 653e c3bd 1c83 8b3b c973 b43d
000003f0: 3f29 81bd e021 513d 55ef babd 94d8 123d

fcnn.1.weight f4 [256]
0.7652576 0.8943864 1.1243448 0.8962239 0.9358378 1.0149202 0.8924667 1.0634593
0.96174395 0.87514013 0.9876901 0.9945693 1.0054009 0.9054341 0.9587723 0.96814615
0.8720013 0.95786667 0.92340016 0.9970697 0.9063015 0.99949807 1.0203598 0.8365455
0.8795054 1.031435 0.9588147 0.9879004 0.92295045 0.980615 0.7727479 0.9651822
0.8606631 0.8872825 0.84159577 1.0950618 0.98395157 1.0731541 0.9996293 0.8788378
0.9373092 0.9917687 0.8346895 1.0461544 0.92810863 0.9273049 0.99105185 1.0052732
0.8648423 0.863158 0.87429214 1.0049151 0.9369974 0.8853944 0.9334064 0.92794406
0.94538593 1.0126083 0.9980343 0.9745238 1.048237 0.8294075 0.93892515 0.928731
0.9413607 0.894422 1.0585366 0.95304006 0.8559425 0.96186477 1.004935 0.82664615
0.9747283 1.0884008 1.0466605 0.90155464 0.9682741 0.9593646 1.0230912 1.0406759
0.8732149 0.84994614 0.8762756 0.89318085 0.96942145 0.80625874 1.0490259 0.78996444
1.1341933 0.94197136 0.7779572 1.0054375 0.979338 0.9518412 0.84556836 0.9497163
0.90629923 0.8916192 1.0327063 0.96779335 1.0674659 0.86446524 0.944694 0.86546993
0.9591362 0.8564102 0.8218829 1.0051262 0.8324402 1.0318547 0.9696288 0.861738
0.8705936 1.0560011 1.003884 0.95944756 0.97842395 1.0087109 1.0067908 0.9995134
0.92796516 1.0370604 1.0599542 0.89098084 0.96958727 0.7783375 0.7954273 1.0491914
0.93995106 0.81089056 0.9894463 1.026803 1.0698768 0.90136796 1.0308547 0.8604004
0.9478557 0.88289464 0.8969385 0.9220553 0.9953104 1.0321174 0.96310174 0.940801
0.84261906 1.006596 0.8954289 0.70896846 1.0301198 1.0245538 0.9431381 0.720744
1.0007151 0.9457127 0.8683477 0.84356123 0.88168573 0.8917414 1.0898533 0.95287865
0.8697192 0.84628874 0.9777905 1.0720941 0.96650994 1.049983 0.9361064 0.92346644
0.85696626 0.89417475 0.998325 1.0631168 0.96942484 0.8923833 0.9339387 0.96316665
1.018583 0.9256801 0.89477855 0.996418 0.9257296 0.86371547 0.94057626 0.9836766
0.9251703 0.90757084 0.84790015 0.89941853 0.867995 0.851152 1.0821298 1.0421621
1.0156498 0.8564158 0.9342115 0.99139756 0.95774615 1.1016895 0.7987161 1.0213008
0.9863075 0.96005857 1.0199945 0.99810195 0.9936637 0.8721394 0.9018902 0.95600826
0.9468671 0.9986724 0.9299576 0.89482635 1.0401891 0.90323204 0.85884297 0.92543465
1.0850109 1.0061362 1.0041612 0.8949346 0.8430149 0.9378622 0.965528 0.9858481
1.0719295 0.98971987 0.85295063 0.84838736 0.8249994 0.9995904 0.9451776 0.9692963
0.93375206 0.927492 0.85760176 0.8500395 0.8801514 0.87037235 0.75949097 0.8936561
1.0847303 0.84123623 0.9643822 1.0214258 0.8401042 0.9599141 1.096559 0.8761209
1.0574923 0.9630479 0.77124137 1.0507302 1.0203278 0.930199 0.91787803 0.96548456
00000000: ece7 433f 82f6 643f 88ea 8f3f ee6e 653f
00000010: 1193 6f3f e8e8 813f b378 643f 6f1f 883f
00000020: da34 763f 2f09 603f 42d9 7c3f 189c 7e3f
00000030: fab0 803f 87ca 673f 1a72 753f 6dd8 773f
00000040: 7a3b 5f3f c036 753f f463 6c3f f63f 7f3f
00000050: 6003 683f 1bdf 7f3f 269b 823f d927 563f
00000060: 4427 613f 1006 843f e174 753f 0ae7 7c3f
00000070: 7b46 6c3f 9609 7b3f ced2 453f 2e16 773f
00000080: 6b54 5c3f f224 633f d272 573f fc2a 8c3f
00000090: 40e4 7b3f 1d5d 893f b5e7 7f3f 84fb 603f
000000a0: 7ff3 6f3f 8ee4 7d3f 36ae 553f 63e8 853f
000000b0: 8798 6d3f db63 6d3f 93b5 7d3f cbac 803f
000000c0: 4e66 5d3f ecf7 5c3f 9cd1 5f3f 0fa1 803f
000000d0: 10df 6f3f 35a9 623f b9f3 6e3f be8d 6d3f
000000e0: d004 723f 269d 813f 2d7f 7f3f 647a 793f
000000f0: a12c 863f 0d54 543f 665d 703f 51c1 6d3f
00000100: 04fd 703f d7f8 643f 217e 873f 6ffa 733f
00000110: 0c1f 5b3f c53c 763f b6a1 803f 159f 533f
00000120: cb87 793f b850 8b3f f9f8 853f 49cc 663f
00000130: d0e0 773f eb98 753f a7f4 823f de34 853f
00000140: 038b 5f3f 1296 593f 9953 603f 80a7 643f
00000150: 012c 783f f966 4e3f 7b46 863f 1c3b 4a3f
00000160: 3f2d 913f 0925 713f 3428 473f 2db2 803f
00000170: e5b5 7a3f ddab 733f 2b77 583f 9c20 733f
00000180: 3a03 683f 2841 643f b82f 843f 4ec1 773f
00000190: b9a2 883f 984d 5d3f 77d7 713f 708f 5d3f
000001a0: f389 753f b33d 5b3f eb66 523f faa7 803f
000001b0: cd1a 553f d113 843f 9839 783f dd9a 5c3f
000001c0: 39df 5e3f 0b2b 873f 457f 803f 5b9e 753f
000001d0: fe79 7a3f 701d 813f 85de 803f 1ce0 7f3f
000001e0: 208f 6d3f 65be 843f 94ac 873f 5217 643f
000001f0: df36 783f 2041 473f 20a1 4b3f e74b 863f
00000200: a2a0 703f 8696 4f3f 5a4c 7d3f 486e 833f
00000210: b9f1 883f 0dc0 663f 0cf3 833f 3343 5c3f
00000220: aca6 723f 6205 623f c39d 653f d10b 6c3f
00000230: aacc 7e3f 6c1c 843f d68d 763f 56d8 703f
00000240: e2b5 573f 23d8 803f d43a 653f f57e 353f
00000250: f7da 833f 9424 833f 8071 713f ae82 383f
00000260: 6f17 803f 3a1a 723f 094c 5e3f a1f3 573f
00000270: 28b6 613f 2a49 643f 5080 8b3f dbef 733f
00000280: eba5 5e3f 61a6 583f 7a50 7a3f 613a 893f
00000290: 326d 773f d865 863f aba4 6f3f 4c68 6c3f
000002a0: 2462 5b3f a3e8 643f 3a92 7f3f 3614 883f
000002b0: 3a2c 783f 3b73 643f 9b16 6f3f 1792 763f
000002c0: ee60 823f 5ff9 6c3f 3510 653f 4015 7f3f
000002d0: 9dfc 6c3f 751c 5d3f 9bc9 703f 3bd2 7b3f
000002e0: f6d7 6c3f 9056 683f fc0f 593f 4b40 663f
000002f0: ec34 5e3f 19e5 593f 3b83 8a3f 9165 853f
00000300: d000 823f 113e 5b3f 7c28 6f3f 3bcc 7d3f
00000310: da2e 753f 2904 8d3f a978 4c3f fcb9 823f
00000320: a67e 7c3f 66c6 753f 2e8f 823f 9c83 7f3f
00000330: bf60 7e3f 8744 5f3f 47e2 663f f5bc 743f
00000340: e265 723f ffa8 7f3f b411 6e3f 5713 653f
00000350: eb24 853f 373a 673f 22dd 5b3f 49e9 6c3f
00000360: a3e1 8a3f 12c9 803f 5b88 803f 6f1a 653f
00000370: d3cf 573f bd17 703f d82c 773f 8b60 7c3f
00000380: fc34 893f 485e 7d3f f95a 5a3f ea2f 593f
00000390: 2933 533f 28e5 7f3f 29f7 713f cd23 783f
000003a0: 600a 6f3f 1e70 6d3f ca8b 5b3f 309c 593f
000003b0: 9a51 613f b9d0 5e3f 006e 423f a5c6 643f
000003c0: 71d8 8a3f 425b 573f c0e1 763f 15be 823f
000003d0: 1211 573f eebc 753f 0c5c 8c3f 7649 603f
000003e0: e85b 873f 4f8a 763f 1370 453f 547e 863f
000003f0: 1a9a 823f 8621 6e3f 0efa 6a3f ff29 773f

fcnn.1.bias f4 [256]
0.13794655 0.23431867 -0.29857993 0.2593761 0.22091424 -0.30328843 -0.1758563 -0.019642271
0.085722834 -0.25439736 -0.5244243 -0.14175129 -0.29407635 0.0742193 -0.4234401 0.13101791
-0.5968236 -0.2939348 0.18044785 -0.12522018 0.05004741 -0.37476686 0.11291785 0.12933587
0.081577085 -0.03215478 -0.067789376 -0.19688252 -0.00703137 -0.06651661 0.13108104 -0.5235479
0.35526636 0.042409588 -0.7061535 -0.035787586 -0.029032221 -0.35093352 0.061546177 0.2631411
0.016780239 -0.06854971 -0.12889665 -0.56857157 0.21344241 0.077534474 -0.08505374 -0.111307584
0.03180433 0.21063417 -0.17479052 0.034087315 -0.41753203 0.17832008 -0.548052 -0.20406938
-0.06227785 0.16407701 -0.0841916 -0.21849583 0.01462915 0.06404424 -0.39651728 -0.18335505
0.018972864 0.18331139 0.0048914095 -0.068888515 -0.10111671 -0.44498467 -0.20508906 -0.083322726
-0.34026244 -0.09016951 -0.17765719 -0.011110907 -0.5271136 -0.37975016 -0.05432841 -0.47240117
0.049527854 0.041240036 0.005273501 -0.16374515 -0.24917348 -0.24053393 -0.25758037 -0.38829637
0.014308225 -0.33612275 0.14349228 0.027647682 -0.4883625 -0.032799225 -0.12162166 0.08759765
-0.004058987 0.2056887 -0.30184442 0.012193619 0.15868261 0.07498497 -0.5595235 0.0056444407
0.02889979 -0.08568961 -0.02763305 0.04688164 -0.21872506 -0.19163626 -0.3280817 -0.61916506
-0.04955388 -0.028676687 -0.06283529 0.07303878 -0.3684166 -0.11992433 -0.35678047 -0.39168194
0.01685583 -0.14507145 0.2186971 -0.50178355 0.22660877 -0.08519197 0.14064577 -0.0057398556
-0.019027697 -0.061050057 0.15946433 0.055378508 -0.033189964 -0.5737015 -0.19097944 0.13072662
-0.0019186345 0.281624 0.026317507 0.007061628 -0.3512601 -0.3033363 -0.59079117 -0.41329685
0.068638675 -0.48736066 -0.15292175 -0.07623585 -0.123727344 -0.16068791 -0.50074947 -0.03345441
-0.36262676 -0.13989647 0.33344597 0.17079452 -0.022791691 -0.012561861 -0.3024958 -0.52438813
-0.5055301 -0.07135166 -0.007710536 0.034330517 -0.46854162 -0.16048254 -0.5593511 -0.38400143
0.023621548 -0.009543778 -0.28197825 -0.35236627 -0.5486091 0.103218615 -0.20797479 -0.5126141
-0.36977938 -0.5912003 -0.016519763 -0.18595016 0.028007988 0.09989996 -0.26590583 -0.057726976
-0.0626559 -0.47490525 -0.03907833 -0.07674902 -0.32880557 -0.09627516 -0.13606812 -0.20556304
-0.44112313 0.2537274 0.016426574 -0.12821521 0.019754225 -0.07343273 -0.15915178 -0.31241745
-0.484571 -0.11925948 -0.17263779 -0.24610656 -0.21996838 0.18441488 -0.14204997 0.3949377
-0.34278274 -0.24178398 0.16857052 0.08238962 -0.093934916 0.058808893 0.12563962 0.038716584
0.01731046 -0.18429783 0.02308804 -0.04691967 0.06101807 -0.3330973 0.13296454 -0.13517044
-0.3363091 -0.06422999 -0.6493655 -0.582942 0.10556154 -0.26768905 -0.15603061 0.08936534
0.02149007 -0.4670397 -0.14591418 0.2608181 -0.5713952 -0.02680691 -0.30178994 -0.1542599
0.07443799 0.079765275 -0.047038082 -0.15180707 -0.55154055 -0.42232338 -0.112846404 -0.061277237
-0.54828006 0.19647783 -0.05332355 -0.020016948 -0.028196443 -0.11446878 -0.025880361 -0.023613995
00000000: dc41 0d3e 3cf1 6f3e 78df 98be f2cc 843e
00000010: 5837 623e 9f48 9bbe ad13 34be d4e8 a0bc
00000020: 748f af3d 5f40 82be ac40 06bf 4027 11be
00000030: 2d91 96be 4a00 983d 24cd d8be 8f29 063e
00000040: 6ec9 18bf 9f7e 96be 52c7 383e b839 00be
00000050: 83fe 4c3d 71e1 bfbe 7941 e73d 9f70 043e
00000060: e311 a73d bbb4 03bd 28d5 8abd 929b 49be
00000070: 6867 e6bb dc39 88bd 1c3a 063e 3c07 06bf
00000080: 79e5 b53e adb5 2d3d 7ac6 34bf 0196 12bd
00000090: fbd4 edbc 8fad b3be d817 7c3d 6eba 863e
000000a0: b676 893c ca63 8cbd 7cfd 03be e88d 11bf
000000b0: a690 5a3e 65ca 9e3d a830 aebd 3bf5 e3bd
000000c0: 4245 023d 7cb0 573e 49fc 32be 249f 0b3d
000000d0: c2c6 d5be 8a99 363e 234d 0cbf 90f7 50be
000000e0: 0f17 7fbd ce03 283e a56c acbd 5fbd 5fbe
000000f0: 1aaf 6f3c a029 833d 5004 cbbe 6dc1 3bbe
00000100: fb6c 9b3c fbb5 3b3e 1e48 a03b 6c15 8dbd
00000110: 4716 cfbd 08d5 e3be de02 52be 1ba5 aabd
00000120: e136 aebe cbaa b8bd c4eb 35be 860a 36bc
00000130: ebf0 06bf 9d6e c2be 7887 5ebd 91de f1be
00000140: b8dd 4a3d 50eb 283d 55cd ac3b cfac 27be
00000150: 5527 7fbe 874e 76be 93e1 83be c8ce c6be
00000160: 0c6d 6a3c 4818 acbe a4ef 123e 647d e23c
00000170: a60a fabe 7b58 06bd c714 f9bd 6666 b33d
00000180: 4001 85bb 0fa0 523e 5a8b 9abe bfc7 473c
00000190: b27d 223e b891 993d ef3c 0fbf 00f5 b83b
000001a0: 41bf ec3c 097e afbd b55e e2bc f606 403d
000001b0: 76f9 5fbe 4c3c 44be 53fa a7be 9a81 1ebf
000001c0: 02f9 4abd 5feb eabc caaf 80bd 5b95 953d
000001d0: 1aa1 bcbe e39a f5bd eeab b6be 898a c8be
000001e0: 3d15 8a3c 9c8d 14be 22f2 5f3e e374 00bf
000001f0: 210c 683e 2179 aebd 7205 103e 6615 bcbb
00000200: f9df 9bbc a00f 7abd 9e4a 233e 93d4 623d
00000210: 33f2 07bd 1ade 12bf 1d90 43be 33dd 053e
00000220: b17a fbba 0531 903e d097 d73c 3b65 e73b
00000230: 5dd8 b3be e54e 9bbe 173e 17bf a59b d3be
00000240: 6f92 8c3d 5687 f9be 8597 1cbe 8b21 9cbd
00000250: c364 fdbd 5f8b 24be 1e31 00bf 7e07 09bd
00000260: 37aa b9be 0541 0fbe 6eb9 aa3e c2e4 2e3e
00000270: a4b5 babc 44d0 4dbc bbe0 9abe 4d3e 06bf
00000280: 6c6a 01bf d220 92bd aaa8 fcbb 289e 0c3d
00000290: b0e4 efbe 8955 24be a231 0fbf d69b c4be
000002a0: fa81 c13c 825d 1cbc 745f 90be 5a69 b4be
000002b0: a571 0cbf 4864 d33d 58f7 54be ad3a 03bf
000002c0: b953 bdbe e758 17bf 7454 87bc b869 3ebe
000002d0: 0271 e53c 5a98 cc3d cf24 88be 1f73 6cbd
000002e0: bd51 80bd c826 f3be 9910 20bd 972e 9dbd
000002f0: 3459 a8be e92b c5bd 7155 0bbe 1e7f 52be
00000300: e4da e1be 8fe8 813e 0691 863c d94a 03be
00000310: 9dd3 a13c e663 96bd aff8 22be 2ef5 9fbe
00000320: b119 f8be 503e f4bd f6c7 30be 5c03 7cbe
00000330: 643f 61be 41d7 3c3e 8c75 11be 4635 ca3e
00000340: 3881 afbe 3896 77be c09d 2c3e e4bb a83d
00000350: f360 c0bd 98e1 703d aca7 003e 4895 1e3d
00000360: aace 8d3c 92b8 3cbe 2123 bd3c d72e 40bd
00000370: 15ee 793d bb8b aabe db27 083e 1f6a 0abe
00000380: b530 acbe 038b 83bd d13c 26bf b03b 15bf
00000390: a630 d83d 8a0e 89be 7dc6 1fbe 2d05 b73d
000003a0: f10b b03c d41f efbe 876a 15be f389 853e
000003b0: f546 12bf 2a9a dbbc 3684 9abe 4ff6 1dbe
000003c0: f272 983d fa5b a33d 01ab 40bd 5073 1bbe
000003d0: c331 0dbf c53a d8be 041c e7bd d7fd 7abd
000003e0: 155c 0cbf 7c31 493e cb69 5abd 95fa a3bc
000003f0: 3afc e6bc 9c6e eabd 0d03 d4bc 2372 c1bc

fcnn.1.running_mean f4 [256]
1171.4048 172.76329 -535.8042 211.49498 216.42737 -282.93802 146.95512 -412.92996
-308.78464 342.01212 -501.268 -344.2469 -274.27823 361.47192 -831.6388 112.17081
-641.8047 4.245938 129.6492 -228.9853 -537.0612 -355.53052 -1200.163 1034.0643
686.3348 -463.99066 -315.0298 -213.24178 37.77889 -738.4551 -303.9353 -552.85657
283.2088 130.92256 -693.445 -244.30193 -316.0549 -331.5833 -397.9777 177.70062
-341.92322 -253.40607 -146.96289 -698.8861 -354.3312 -236.75317 -380.7878 -302.35443
42.48448 -698.1366 -638.8632 -386.59915 -537.0292 177.30046 -490.34756 -494.18002
-612.47784 -91.4916 -222.67412 2.625481 -204.62975 94.86282 -492.32797 -118.63705
705.84064 -275.7781 -635.2048 200.12695 754.82043 -429.6314 -115.46335 740.06854
-392.29422 -168.67589 -184.26555 -328.064 -683.0757 -438.62543 -443.09024 -192.70782
1159.634 858.7626 476.48593 141.04498 -627.1515 494.0733 -201.29642 -547.43384
-27.319351 -456.60977 -464.33963 46.873566 -546.20154 87.29563 -367.76822 -203.83336
-248.38515 958.4641 -498.8878 193.00827 -363.99393 -188.47687 -460.5929 832.4028
-323.03723 37.895603 299.5354 -343.6779 453.99734 -332.38177 -313.33084 -668.59753
-262.30212 -63.737087 4.8956943 273.83026 -380.92508 -404.89667 -550.35095 344.97723
-366.24957 -230.66591 -58.48092 -518.6792 130.62643 -406.2271 -472.7009 -385.16495
-287.2623 506.79602 511.55795 -15.011321 -585.36304 -549.49255 -242.87697 974.2361
-896.518 328.97247 318.2591 -151.64491 -166.12839 8.495533 -531.78937 -551.4563
501.94666 -374.09943 -120.48952 -200.57008 -499.2436 -639.6753 -685.4933 916.41003
-12.1212635 -399.9168 455.03763 165.31117 129.43341 44.410503 -286.58167 -526.0928
-411.088 692.82263 -323.94263 181.42856 -432.7224 -305.8984 -775.8016 -426.3329
-268.69937 1237.9838 -230.91264 -299.0936 -398.09888 820.473 -470.0708 -393.6278
-394.8 -672.20404 435.9183 -352.35345 1032.2106 1395.3365 -718.0566 -291.97885
232.95633 -651.8384 309.33383 637.3005 -318.2223 640.2148 -214.29065 -336.94788
-262.2067 -551.03033 131.2831 -296.48288 7.384095 -133.98547 777.2633 -442.05118
-594.31903 -249.42365 -174.09154 -399.87885 -358.4115 287.18903 53.206448 173.58047
-308.49118 -346.07104 350.9895 1034.9137 -226.89104 941.6695 202.50505 1084.3423
-166.77534 -225.80064 -630.12335 733.92224 572.589 -351.01703 32.142307 -40.79688
-273.8769 -232.60559 -637.9568 -808.3129 1009.8868 -927.8641 127.6467 -844.3752
812.7946 81.99473 -655.3321 384.63092 -411.65933 577.49854 -305.15237 -411.40158
-126.07422 1441.7412 -363.76373 -175.69626 -570.0881 -469.1623 -220.20769 850.7809
-342.95337 -622.9379 8.284882 -308.2506 -172.22935 251.33504 -244.85942 -343.26782
00000000: f46c 9244 67c3 2c43 78f3 05c4 b77e 5343
00000010: 686d 5843 1178 8dc3 83f4 1243 0977 cec3
00000020: 6f64 9ac3 8d01 ab43 4ea2 fac3 9a1f acc3
00000030: 9d23 89c3 68bc b443 e2e8 4fc4 7457 e042
00000040: 8073 20c4 b9de 8740 32a6 0143 3dfc 64c3
00000050: eb43 06c4 e8c3 b1c3 3705 96c4 0f42 8144
00000060: 6d95 2b44 cefe e7c3 d083 9dc3 e53d 55c3
00000070: 951d 1742 209d 38c4 b8f7 97c3 d236 0ac4
00000080: ba9a 8d43 2dec 0243 7b5c 2dc4 4b4d 74c3
00000090: 0707 9ec3 aaca a5c3 25fd c6c3 5cb3 3143
000000a0: 2cf6 aac3 f467 7dc3 80f6 12c3 b6b8 2ec4
000000b0: 652a b1c3 d0c0 6cc3 d764 bec3 5e2d 97c3
000000c0: 1cf0 2942 be88 2ec4 3fb7 1fc4 b14c c1c3
000000d0: de41 06c4 eb4c 3143 7d2c f5c3 0b17 f7c3
000000e0: 951e 19c4 b3fb b6c2 93ac 5ec3 e107 2840
000000f0: 37a1 4cc3 c4b9 bd42 fb29 f6c3 2b46 edc2
00000100: cd75 3044 99e3 89c3 1bcd 1ec4 8020 4843
00000110: 82b4 3c44 d2d0 d6c3 3ced e6c2 6304 3944
00000120: a925 c4c3 07ad 28c3 fb43 38c3 3108 a4c3
00000130: d8c4 2ac4 0e50 dbc3 8d8b ddc3 34b5 40c3
00000140: 4af4 9044 ceb0 5644 333e ee43 840b 0d43
00000150: b2c9 1cc4 6209 f743 e24b 49c3 c4db 08c4
00000160: 088e dac1 0d4e e4c3 792b e8c3 887e 3b42
00000170: e68c 08c4 5d97 ae42 55e2 b7c3 57d5 4bc3
00000180: 9962 78c3 b49d 6f44 a371 f9c3 1e02 4143
00000190: 39ff b5c3 147a 3cc3 e44b e6c3 c719 5044
000001a0: c484 a1c3 1995 1742 88c4 9543 c5d6 abc3
000001b0: a9ff e243 de30 a6c3 59aa 9cc3 3e26 27c4
000001c0: ac26 83c3 c7f2 7ec2 87a9 9c40 46ea 8843
000001d0: 6976 bec3 c672 cac3 7696 09c4 167d ac43
000001e0: f21f b7c3 79aa 66c3 76ec 69c2 78ab 01c4
000001f0: 5ea0 0243 121d cbc3 b759 ecc3 1d95 c0c3
00000200: 93a1 8fc3 e465 fd43 6bc7 ff43 5f2e 70c1
00000210: 3c57 12c4 865f 09c4 81e0 72c3 1c8f 7344
00000220: 2721 60c4 7a7c a443 2a21 9f43 19a5 17c3
00000230: de20 26c3 b4ed 0741 85f2 04c4 34dd 09c4
00000240: 2cf9 fa43 ba0c bbc3 a2fa f0c2 f191 48c3
00000250: 2e9f f9c3 38eb 1fc4 925f 2bc4 3e1a 6544
00000260: b2f0 41c1 5af5 c7c3 d184 e343 a94f 2543
00000270: f46e 0143 5ba4 3142 744a 8fc3 f085 03c4
00000280: 448b cdc3 a634 2d44 a8f8 a1c3 b66d 3543
00000290: 785c d8c3 fff2 98c3 4df3 41c4 9c2a d5c3
000002a0: 8559 86c3 7bbf 9a44 a3e9 66c3 fb8b 95c3
000002b0: a80c c7c3 461e 4d44 1009 ebc3 5cd0 c4c3
000002c0: 6666 c5c3 0f0d 28c4 8bf5 d943 3e2d b0c3
000002d0: bd06 8144 c56a ae44 9f83 33c4 4bfd 91c3
000002e0: d2f4 6843 a8f5 22c4 bbaa 9a43 3b53 1f44
000002f0: 741c 9fc3 bf0d 2044 684a 56c3 5479 a8c3
00000300: 751a 83c3 f1c1 09c4 7948 0343 cf3d 94c3
00000310: 824a ec40 48fc 05c3 da50 4244 8d06 ddc3
00000320: 6b94 14c4 746c 79c3 6f17 2ec3 7ef0 c7c3
00000330: ac34 b3c3 3298 8f43 67d3 5442 9a94 2d43
00000340: df3e 9ac3 1809 adc3 a87e af43 3d5d 8144
00000350: 1be4 62c3 d96a 6b44 4b81 4a43 f48a 8744
00000360: 7dc6 26c3 f7cc 61c3 e587 1dc4 067b 3744
00000370: b225 0f44 2e82 afc3 b991 0042 0130 23c2
00000380: 3ef0 88c3 089b 68c3 3c7d 1fc4 0714 4ac4
00000390: c178 7c44 4df7 67c4 1c4b ff42 0318 53c4
000003a0: db32 4b44 4dfd a342 41d5 23c4 c250 c043
000003b0: 65d4 cdc3 e85f 1044 8193 98c3 67b3 cdc3
000003c0: 0026 fcc2 b837 b444 c2e1 b5c3 3eb2 2fc3
000003d0: a385 0ec4 c694 eac3 2b35 5cc3 fab1 5444
000003e0: 087a abc3 07bc 1bc4 e08e 0441 1420 9ac3
000003f0: b73a 2cc3 c555 7b43 03dc 74c3 48a2 abc3

fcnn.1.running_var f4 [256]
730526.56 83361.336 177631.47 79355.46 64288.77 61112.555 112490.33 368103.84
82954.19 111534.2 342871.75 77872.2 99226.87 238716.05 425504.5 58522.793
511079.97 138017.16 128872.85 37682.33 199555.33 82595.15 844326.1 552597.3
369181.12 402747.53 85539.65 62952.973 29305.416 708577.1 160260.16 234500.69
144779.38 84615.47 406650.47 199599.83 108882.266 84463.54 207528.19 101687.02
192681.64 98224.03 86236.11 327922.3 152439.27 143529.0 89253.34 75697.69
43625.363 331531.9 421110.78 114302.09 270705.28 111918.75 149183.61 253382.2
206949.78 25498.379 173350.12 11288.036 40470.1 113180.805 331547.94 43916.523
272016.88 97074.96 235208.61 86787.41 301868.12 389043.62 20911.633 278442.1
147194.42 29750.893 22849.754 150572.34 375732.3 237816.9 166301.58 87107.305
754200.56 446458.25 159908.42 51451.348 256013.4 167772.31 40951.25 259559.44
85588.73 264373.6 192041.02 43303.305 189739.95 35636.094 101673.51 75742.93
97514.055 588598.75 238389.33 118015.1 93664.08 159473.44 358120.1 406698.12
85668.625 40776.773 116735.875 230733.7 139919.61 129076.75 113182.26 325432.28
162335.62 58388.715 24627.855 147614.17 103632.62 225644.61 234804.2 191430.4
209549.3 83520.44 79131.15 261859.28 97271.48 159434.05 220689.47 147702.27
142909.19 183557.62 266086.4 26576.424 201225.9 213379.47 71921.39 478158.1
588409.2 194067.72 70693.055 91109.836 203576.14 175222.56 416519.47 218839.03
130532.734 220046.92 21274.469 81228.57 308188.38 233314.75 408083.25 493664.66
209425.69 159910.06 301698.88 154075.95 71146.24 89329.65 59337.34 265345.3
338751.47 308818.1 84147.04 110650.23 197401.06 158905.55 575135.25 161266.3
131983.42 811195.4 71382.59 95946.2 266841.28 369379.5 165358.95 302514.97
194876.19 374607.03 110112.75 218364.31 581174.3 996475.94 585351.0 121221.14
118439.375 357925.94 138538.86 238173.48 185619.9 238367.98 35439.81 120062.0
196864.9 258522.67 42113.016 220762.7 29364.404 33224.92 306928.56 225959.81
382676.72 83258.516 22715.473 174581.8 143456.17 157489.34 86659.94 99686.79
74730.26 91970.97 188621.22 581078.2 34903.926 502462.12 90812.625 649804.75
28849.52 63560.633 427267.78 265317.47 241211.47 99593.625 53681.223 22263.28
46866.395 27986.416 484266.5 700777.5 562395.25 674387.0 134718.58 528649.94
360049.72 18400.156 319151.25 232792.98 146424.3 210931.5 156715.42 83878.234
18878.424 1.1380112e+06 282292.06 21265.87 460021.1 320480.44 43997.336 400149.53
63258.914 233298.75 126492.4 102558.08 48732.63 195340.83 88028.68 155816.08
00000000: e959 3249 abd0 a247 de77 2d48 bbfd 9a47
00000010: c520 7b47 8eb8 6e47 2ab5 db47 fbbc b348
00000020: 1805 a247 1ad7 d947 f86a a748 1a18 9847
00000030: 6fcd c147 031f 6948 10c4 cf48 cb9a 6447
00000040: ff8c f948 4ac8 0648 6db4 fb47 5432 1347
00000050: d5e0 4248 9351 a147 6222 4e49 55e9 0649
00000060: a443 b448 71a7 c448 d311 a747 f9e8 7547
00000070: d5f2 e446 12fe 2c49 0a81 1c48 2c01 6548
00000080: d862 0d48 bc43 a547 4f8f c648 f5eb 4248
00000090: 22a9 d447 c5f7 a447 0caa 4a48 839b c647
000000a0: 692a 3c48 04d8 bf47 0e6e a847 4a1e a048
000000b0: d1dd 1448 402a 0c48 ac52 ae47 d8d8 9347
000000c0: 5d69 2a47 7de1 a148 d99e cd48 0c3f df47
000000d0: 292e 8448 6097 da47 e7af 1148 8d71 7748
000000e0: 7219 4a48 c234 c746 8849 2948 2560 3046
000000f0: 1a16 1e47 670e dd47 7ee3 a148 868c 2b47
00000100: 1cd2 8448 7b99 bd47 27b2 6548 b481 a947
00000110: 8465 9348 74f6 bd48 445f a346 43f5 8748
00000120: 9bbe 0f48 c96d e846 8283 b246 160b 1348
00000130: 8a76 b748 3a3e 6848 6567 2248 a721 aa47
00000140: 8921 3849 48ff d948 1b29 1c48 59fb 4847
00000150: 5a03 7a48 14d7 2348 40f7 1f47 dc79 7d48
00000160: 5d2a a747 b316 8148 418a 3b48 4e27 2947
00000170: fd4a 3948 1834 0b47 c194 c647 77ef 9347
00000180: 0775 be47 6cb3 0f49 55cd 6848 8d7f e647
00000190: 0af0 b647 5cbc 1b48 03dd ae48 4495 c648
000001a0: 5052 a747 c648 1f47 f0ff e347 6d53 6148
000001b0: e7a3 0848 601a fc47 210f dd47 09e7 9e48
000001c0: e887 1e48 b714 6447 b667 c046 8b27 1048
000001d0: 4f68 ca47 275b 5c48 0d4d 6548 9af1 3a48
000001e0: 53a3 4c48 3820 a347 938d 9a47 d2b8 7f48
000001f0: bdfb bd47 83b2 1b48 5e84 5748 913d 1048
00000200: 4c8f 0b48 6841 3348 cdec 8148 d9a0 cf46
00000210: 7a82 4448 de60 5048 b278 8c47 c379 e948
00000220: 93a7 0f49 ee84 3d48 8712 8a47 ebf2 b147
00000230: 09ce 4648 a41d 2b48 ef60 cb48 c2b5 5548
00000240: 5ef2 fe47 bbe3 5648 f034 a646 49a6 9e47
00000250: 8c7b 9648 b0d8 6348 6842 c748 150c f148
00000260: 6c84 4c48 8429 1c48 5c50 9348 fd76 1648
00000270: 1ff5 8a47 d378 ae47 57c9 6747 2a90 8148
00000280: ef67 a548 43ca 9648 8559 a447 1d1d d847
00000290: 44c6 4048 632e 1b48 f469 0c49 937c 1d48
000002a0: dbe3 0048 b60b 4649 4c6b 8b47 1a65 bb47
000002b0: 294b 8248 705c b448 bd7b 2148 5fb6 9348
000002c0: 0c4f 3e48 e1e9 b648 6010 d747 143f 5548
000002d0: 65e3 0d49 bf47 7349 70e8 0e49 92c2 ec47
000002e0: b053 e747 bec4 ae48 b74a 0748 5f97 6848
000002f0: fa44 3548 ffc7 6848 cf6f 0a47 007f ea47
00000300: 3a40 4048 ab76 7c48 0481 2447 ad96 5748
00000310: cf68 e546 ecc8 0147 12de 9548 f4a9 5c48
00000320: 97da ba48 429d a247 f276 b146 737d 2a48
00000330: 0b18 0c48 56cc 1948 f841 a947 65b3 c247
00000340: 21f5 9147 7ca1 b347 4e33 3848 63dd 0d49
00000350: ed57 0847 c457 f548 505e b147 cca4 1e49
00000360: 0a63 e146 a248 7847 79a0 d048 af8c 8148
00000370: de8e 6b48 d084 c247 39b1 5147 8fee ad46
00000380: 6512 3747 d5a4 da46 5075 ec48 9816 2b49
00000390: b44d 0949 30a5 2449 a58f 0348 9f10 0149
000003a0: 37ce af48 50c0 8f46 e8d5 9b48 3f56 6348
000003b0: 13fe 0e48 e0fc 4d48 db0a 1948 1ed3 a347
000003c0: d97c 9346 daea 8a49 82d6 8948 bd23 a646
000003d0: a39e e048 0e7c 9c48 56dd 2b47 b162 c348
000003e0: ea1a 7747 b0d4 6348 330e f747 0a4f c847
000003f0: a15c 3e47 35c3 3e48 57ee ab47 052a 1848

fcnn.3.weight f4 [128, 256]
-0.019026252 0.021015562 -0.01647395 0.0065636877 0.011410609 -0.14392895 -0.09211198 0.07510257
-0.025488336 0.02471882 -0.028176634 0.021150675 -0.05819673 -0.07630528 0.038462367 -0.021778379
-0.1126229 0.053166337 -0.017758185 -0.032235295 -0.03792702 -0.056533594 -0.04647076 0.118159994
0.071389616 0.048647717 -0.16294067 0.03254949 -0.004485308 0.015529926 0.04447113 -0.18903442
-0.1069764 -0.07388892 -0.19135141 -0.118612714 0.09731133 -0.1000287 -0.0067583956 -0.06584782
-0.04599223 0.15322289 0.02643965 0.04793397 0.047983576 -0.048456263 0.022570971 -0.13963509
-0.012591559 0.016947448 0.016619708 -0.042686507 -0.0091229975 -0.07773099 -0.06259132 0.014639504
-0.08392859 -0.084570155 0.006124605 0.12421993 -0.13602157 -0.006099421 0.0040429453 -0.06982316
0.05379399 0.006093726 -0.048608676 0.064234525 0.06393537 -6.1455765e-05 0.084309675 0.004568245
0.045121707 -0.26368788 0.06313254 0.021406583 -0.02856451 -0.033275772 0.01639488 -0.13754253
0.07431199 -0.004350246 0.011506846 0.06519591 0.021304922 0.047911417 -0.11107076 -0.004623317
0.057503853 0.0018801931 -0.016558457 -0.076426074 0.06771104 -0.016521633 0.08637793 -0.03382027
0.09680933 0.004005635 0.08900582 -0.10354209 -0.21142887 0.011534199 -0.07327782 0.019459164
0.08825534 0.00066913356 -0.029174384 0.047364842 0.011842462 0.011972889 -0.08829519 -0.059899148
0.003019658 0.08067992 -0.09471875 -0.08043804 0.00012878158 0.05840475 0.06607487 0.015691023
-0.07673812 0.0718653 0.024123829 -0.058983073 0.007866951 0.026774244 0.012189912 0.01702573
-0.013139514 0.041601766 -0.04002535 -0.00087129563 -0.21027045 -0.21429144 -0.06638571 0.035121936
-0.038907353 0.023353271 -0.019996796 0.02219877 -0.020787435 0.060414556 -0.042318594 0.09489266
-0.0066458257 0.015463571 0.002591844 0.008593212 -0.025033932 0.11003416 0.021348374 0.081298344
-0.030002603 0.026358051 -0.10138413 -0.057478722 -0.13770232 -0.019828137 0.015904313 0.015673986
-0.07240221 0.075993985 -0.091452 -0.030642554 0.045093834 -0.057415366 0.035244774 -0.046406247
-0.033605546 0.0943541 0.17758572 0.002960518 0.026781991 0.029874962 0.039659947 0.012798457
0.01730406 -0.08922701 0.09824851 0.045072936 0.0016801428 0.05878581 0.027181549 -0.021706002
0.0276048 0.0020777343 0.021462897 0.07749464 -0.048681453 0.050661888 0.008818192 0.04389638
0.034012206 0.028925335 0.06474254 0.039910994 0.036521837 -0.26445514 -0.0078580575 -0.022689527
0.028069962 0.115970485 0.17056942 0.009524582 -0.02338243 0.022422269 0.026367607 -0.010772373
-0.036893304 0.044141058 -0.099837005 0.026097186 -0.050396375 0.012510253 -0.02900789 0.0035322572
-0.13813114 -0.117026076 0.05565404 0.054205168 0.05837555 -0.004684627 0.040560137 -0.005745178
-0.11467964 0.11466281 -0.045832925 -0.060269427 0.021448683 0.089180626 -0.02029558 0.052485727
0.044066943 0.16322552 -0.021417765 -0.013195261 -0.06283725 0.004663909 0.041898 0.13851438
0.103837624 -0.023527863 0.045236576 0.12611027 -0.10497555 -0.016952505 -0.12988837 0.011816463
-0.1773502 0.0062038857 -0.039656214 -0.04381199 0.108014226 -0.07056543 0.028553156 -0.089807436
00000000: f1dc 9bbc d428 ac3c 61f4 86bc 3414 d73b
00000010: 90f3 3a3c 1c62 13be 35a5 bcbd 60cf 993d
00000020: eacc d0bc 1f7f ca3c afd2 e6bc 2e44 ad3c
00000030: b25f 6ebd f145 9cbd b78a 1d3d 9268 b2bc
00000040: d6a6 e6bd f2c4 593d 9d79 91bc 2809 04bd
00000050: 5d59 1bbd c58f 67bd 2058 3ebd defd f13d
00000060: b834 923d d442 473d ebd9 26be 9d52 053d
00000070: 7ef9 92bb 3b71 7e3c 5c27 363d 3d92 41be
00000080: 7116 dbbd 1353 97bd a0f1 43be 39eb f2bd
00000090: 2a4b c73d d9db ccbd 8875 ddbb 39db 86bd
000000a0: 5962 3cbd 76e6 1c3e f797 d83c 6956 443d
000000b0: 6d8a 443d 137a 46bd c2e6 b83c 80fc 0ebe
000000c0: d44c 4ebc 60d5 8a3c 0e26 883c 0cd8 2ebd
000000d0: a078 15bc 6d31 9fbd e12f 80bd 88da 6f3c
000000e0: c1e2 abbd 1e33 adbd e9b0 c83b 0567 fe3d
000000f0: 3d49 0bbe a7dd c7bb af7a 843b 72ff 8ebd
00000100: 1657 5c3d e1ad c73b e419 47bd 648d 833d
00000110: 8cf0 823d d0e1 80b8 8daa ac3d 37b1 953b
00000120: 8ad1 383d 1902 87be a24b 813d dc5c af3c
00000130: 1f00 eabc 2d4c 08bd 8e4e 863c f3d7 0cbe
00000140: e230 983d 828c 8ebb 3687 3c3c 6f85 853d
00000150: a987 ae3c c33e 443d 1179 e3bd 327f 97bb
00000160: 2989 6b3d d070 f63a 9aa5 87bc 4685 9cbd
00000170: 16ac 8a3d 6058 87bc eae6 b03d 2087 0abd
00000180: f843 c63d b441 833b af48 b63d e00d d4bd
00000190: cf80 58be f0f9 3c3c af12 96bd d368 9f3c
000001a0: 37bf b43d cb68 2f3a 1eff eebc a301 423d
000001b0: e306 423c f029 443c 1cd4 b4bd cf58 75bd
000001c0: 74e5 453b 843b a53d e7fb c1bd b3bc a4bd
000001d0: 8b09 0739 d239 6f3d 4352 873d 768a 803c
000001e0: e028 9dbd 1d2e 933d 569f c53c 3c98 71bd
000001f0: 62e4 003c a955 db3c 32b8 473c 8b79 8b3c
00000200: 1e47 57bc 9d66 2a3d 9ff1 23bd a967 64ba
00000210: 2351 57be 376f 5bbe 3bf5 87bd 05dc 0f3d
00000220: 515d 1fbd 5c4f bf3c 52d0 a3bc 32da b53c
00000230: 694a aabc 4175 773d 4356 2dbd 1557 c23d
00000240: 3ac5 d9bb eb5a 7d3c eddb 293b 8bca 0c3c
00000250: f613 cdbc 9759 e13d c9e2 ae3c bf7f a63d
00000260: 05c8 f5bc d7ec d73c 7ca2 cfbd cf6e 6bbd
00000270: d601 0dbe 9e6e a2bc c349 823c bb66 803c
00000280: 9c47 94bd bca2 9b3d 304b bbbd 1806 fbbc
00000290: 50b4 383d 602c 6bbd d35c 103d 7a14 3ebd
000002a0: f8a5 09bd b93c c13d 08d9 353e 4005 423b
000002b0: e865 db3c 56bc f43c 7872 223d 9fb0 513c
000002c0: 3ec1 8d3c a7bc b6bd 8436 c93d 669e 383d
000002d0: 3d38 dc3a 64c9 703d d7ab de3c c9d0 b1bc
000002e0: 7623 e23c 992a 083b f5d2 af3c 83b5 9e3d
000002f0: 3466 47bd d782 4f3d 2e7a 103c b1cc 333d
00000300: 6250 0b3d d3f4 ec3c bd97 843d b679 233d
00000310: ec97 153d aa66 87be 15bf 00bc 63df b9bc
00000320: faf2 e53c ef81 ed3d c0a9 2e3e fe0c 1c3c
00000330: 838c bfbc e8ae b73c e100 d83c 9b7e 30bc
00000340: 6f1d 17bd 41cd 343d 5877 ccbd c4c9 d53c
00000350: 6e6c 4ebd cef7 4c3c f4a1 edbc 717d 673b
00000360: 4072 0dbe 5eab efbd 7ef5 633d 3d06 5e3d
00000370: 331b 6f3d 8081 99bb 6322 263d 0c42 bcbb
00000380: 29dd eabd 56d4 ea3d 4ebb 3bbd 13dd 76bd
00000390: 26b5 af3c 55a4 b63d eb42 a6bc 46fb 563d
000003a0: 8a7f 343d 9724 273e 4f74 afbc f030 58bc
000003b0: d1b0 80bd b4d3 983b 3d9d 2b3d b7d6 0d3e
000003c0: d2a8 d43d 81bd c0bc fd49 393d 0d23 013e
000003d0: 6cfd d6bd fbdf 8abc 7501 05be d799 413c
000003e0: 4a9b 35be f749 cb3b 8e6e 22bd 3474 33bd
000003f0: 9036 dd3d 9c84 90bd 4fe8 e93c f6ec b7bd

fcnn.3.bias f4 [128]
0.06401338 0.0667183 -0.056815203 0.039768077 -0.015301761 -0.09932411 -0.0043195314 0.04776272
0.04347662 -0.07345424 -0.009253134 0.02037422 -0.007478314 -0.033183187 0.0374274 0.055645943
0.034457564 -0.02316854 0.08695769 0.0044357227 -0.00040345683 -0.04325672 0.017558023 0.019847598
0.03777036 -0.043934032 0.09472437 -0.00540336 -0.0132619385 0.07462765 -0.009074227 0.021007087
-0.029400079 0.07111753 -0.069512784 -0.02401646 -0.036021814 -0.034784295 0.10308376 0.016882602
0.043619514 0.07319262 0.00047646087 -0.011968021 -0.033402946 -0.041278653 0.021448301 -0.06267999
0.0881486 -0.016899325 0.06609502 -0.057519708 0.043183763 -0.009063612 0.016665027 0.058138046
0.05776547 0.01143704 0.047843672 0.06119809 0.031125542 -0.016350567 -0.059285205 0.057465184
0.09745107 0.025992414 -0.033730716 -0.0049083764 -0.0152155915 0.0022275695 0.072186366 0.019456657
0.024013693 -0.07402277 -0.022896107 -0.09243583 0.04218274 0.038055126 -0.013349714 -0.01993552
-0.052320175 -0.0067974706 -0.0047658025 -0.006266769 -0.012162838 0.01302579 -0.04325621 0.09412031
0.037599277 -0.0057211155 0.06342962 0.023137528 0.04127575 0.003201183 0.11444304 -0.061659794
0.029311862 -0.019570732 0.019526437 -0.05116242 0.061802886 -0.027504522 -0.023725534 -0.067771204
-0.0034797366 -0.034074407 -0.015899638 0.075419374 -0.015014862 -0.015343214 0.014599688 0.0067546144
-0.059251837 0.055100948 0.05358225 0.011943513 0.022578692 -0.0008610806 -0.054979574 -0.09818801
0.056166172 0.046673477 0.03971269 -0.02877574 -0.022969158 0.055774335 -0.007562757 0.0559697
00000000: 7219 833d 9ba3 883d 0fb7 68bd dae3 223d
00000010: 3db4 7abc 706a cbbd db8a 8dbb d8a2 433d
00000020: 8a14 323d 2d6f 96bd 759a 17bc d6e7 a63c
00000030: a50c f5bb 18eb 07bd 794d 193d 00ed 633d
00000040: 6023 0d3d f3cb bdbc e016 b23d 8a59 913b
00000050: 0f87 d3b9 f52d 31bd d8d5 8f3c 6e97 a23c
00000060: 18b5 1a3d 2cf4 33bd dafe c13d ab0e b1bb
00000070: 9a48 59bc 62d6 983d 11ac 14bc 0e17 ac3c
00000080: 6fd8 f0bc 11a6 913d b85c 8ebd 2bbe c4bc
00000090: 9c8b 13bd fa79 0ebd 941d d33d 624d 8a3c
000000a0: 60aa 323d 03e6 953d 7fcd f939 8515 44bc
000000b0: 87d1 08bd ce13 29bd 59b4 af3c 5e5e 80bd
000000c0: 4187 b43d 7470 8abc d35c 873d c999 6bbd
000000d0: 75e1 303d 8b7f 14bc 1885 883c 2922 6e3d
000000e0: 7c9b 6c3d 6c62 3b3c baf7 433d d9aa 7a3d
000000f0: fefa fe3c a0f1 85bc 0bd5 72bd 9d60 6b3d
00000100: 6d94 c73d 0bee d43c 3829 0abd 72d6 a0bb
00000110: d14a 79bc 6afc 113b 72d6 933d 9163 9f3c
00000120: 5db8 c43c 4099 97bd 9e90 bbbc ff4e bdbd
00000130: cfc7 2c3d b1df 1b3d c2b8 5abc d14f a3bc
00000140: ae4d 56bd 51bd debb 732a 9cbb 7859 cdbb
00000150: a446 47bc 206a 553c 6c2d 31bd 26c2 c03d
00000160: b301 1a3d 3278 bbbb 63e7 813d ea8a bd3c
00000170: c310 293d f0ca 513b 1d61 ea3d fb8e 7cbd
00000180: 6e1f f03c cd52 a0bc e8f5 9f3c b08f 51bd
00000190: 0625 7d3d 2a51 e1bc 0d5c c2bc a1cb 8abd
000001a0: 4b0c 64bb 9b91 0bbd f53f 82bc 7975 9a3d
000001b0: e500 76bc 1b62 7bbc 8833 6f3c d055 dd3b
000001c0: 0eb2 72bd 88b1 613d 1079 5b3d b9ae 433c
000001d0: f3f6 b83c 24ba 61ba 4332 61bd cc16 c9bd
000001e0: 800e 663d b02c 3f3d c6a9 223d 1abb ebbc
000001f0: d129 bcbc a173 643d 01d1 f7bb 7c40 653d

fcnn.4.weight f4 [128]
3.0954359 3.1503026 3.0472524 3.0296926 2.9913504 3.0003803 2.9746864 2.9913104
3.0226996 3.1056747 2.9934647 2.985207 3.0035703 3.0802376 2.9812253 2.9835005
3.0482156 3.097546 3.2203856 3.0288177 3.014552 2.9483626 3.0507452 3.0175996
2.9837677 3.0697522 2.9933944 3.0214074 2.984917 2.9692628 2.999267 3.2423306
2.9872668 2.9691784 2.9850981 2.993651 2.9741204 2.9768128 2.9773257 2.987197
2.9779618 3.0445457 2.9897857 2.9869416 2.9797451 3.021476 3.161473 3.2361186
2.977006 2.9764936 2.9811308 2.9884057 3.0130913 2.9854379 3.0253336 3.0427425
3.2450223 2.986624 3.2158144 2.9930677 2.974804 2.9858375 2.9817965 2.981569
3.210481 2.965615 3.0151317 3.0070744 3.2293031 2.9930305 3.0278826 3.0121677
2.9898148 2.9689376 2.9814022 3.0611713 2.9678106 2.98829 3.0632374 2.9812636
3.0388854 3.0460427 2.9736972 3.026709 2.9702718 3.0095222 2.978824 3.1986103
3.046478 3.0046742 2.9685645 2.9822447 2.964652 2.970198 2.985362 3.0945616
3.1339765 3.0447934 2.970559 2.9812145 2.9711485 2.987585 2.9917655 2.9779737
3.0358334 3.246473 2.977046 2.96776 3.2487073 3.0466983 3.0018733 2.9800646
2.9891703 3.0284839 3.0233374 3.1929004 2.9957435 2.9830205 3.209496 2.980714
3.1856072 2.9626327 3.007434 3.1476896 2.9915268 3.231686 3.0162504 2.9805853
00000000: 9f1b 4640 8f9e 4940 2f06 4340 7ce6 4140
00000010: 4972 3f40 3b06 4040 4361 3e40 a171 3f40
00000020: e973 4140 60c3 4640 ed94 3f40 a20d 3f40
00000030: 7f3a 4040 9d22 4540 65cc 3e40 acf1 3e40
00000040: f715 4340 323e 4640 cc1a 4e40 26d8 4140
00000050: 6cee 4040 f9b1 3c40 693f 4340 5a20 4140
00000060: 0df6 3e40 d276 4440 c693 3f40 bd5e 4140
00000070: e108 3f40 6708 3e40 fef3 3f40 5882 4f40
00000080: 612f 3f40 0507 3e40 d90b 3f40 fa97 3f40
00000090: fd57 3e40 1a84 3e40 818c 3e40 3c2e 3f40
000000a0: ed96 3e40 d6d9 4240 a658 3f40 0d2a 3f40
000000b0: 25b4 3e40 dd5f 4140 9355 4a40 911c 4f40
000000c0: 4487 3e40 df7e 3e40 d9ca 3e40 0a42 3f40
000000d0: 7dd6 4040 6a11 3f40 119f 4140 4bbc 4240
000000e0: 72ae 4f40 d924 3f40 e7cf 4d40 6c8e 3f40
000000f0: 3063 3e40 f617 3f40 c1d5 3e40 07d2 3e40
00000100: 8578 4d40 a3cc 3d40 ebf7 4040 e873 4040
00000110: e7ac 4e40 d08d 3f40 d4c8 4140 5bc7 4040
00000120: 2059 3f40 1303 3e40 4bcf 3e40 3bea 4340
00000130: 9cf0 3d40 2540 3f40 150c 4440 06cd 3e40
00000140: 197d 4240 5df2 4240 0e51 3e40 9ab5 4140
00000150: ef18 3e40 039c 4040 0da5 3e40 08b6 4c40
00000160: 7ff9 4240 954c 4040 f6fc 3d40 19dd 3e40
00000170: dcbc 3d40 b917 3e40 2c10 3f40 4c0d 4640
00000180: 1293 4840 e5dd 4240 a31d 3e40 38cc 3e40
00000190: 4c27 3e40 9834 3f40 1679 3f40 1f97 3e40
000001a0: 184b 4240 37c6 4f40 ec87 3e40 c8ef 3d40
000001b0: d2ea 4f40 1bfd 4240 b11e 4040 61b9 3e40
000001c0: 914e 3f40 aed2 4140 5c7e 4140 7b58 4c40
000001d0: 43ba 3f40 cfe9 3e40 6268 4d40 05c4 3e40
000001e0: fde0 4b40 c69b 3d40 cc79 4040 bf73 4940
000001f0: 2d75 3f40 f2d3 4e40 3f0a 4140 e9c1 3e40
